neenzaa.onnx (onnx, 205430 bytes, 9 tensors)

layer1.weight f4 [32, 1536]
00000000: 5f1c 3abc bb6a a7bc 0a0f 15bc d30a b5bc
00000010: 9405 843b 68a6 5bbb 658f b2bc 784b c03b
00000020: 562b 1dbc 4bf7 e5bc 9a0c 34bc 7041 63bc
00000030: 6d43 b238 71c8 da3c 628b 2a39 d411 183c
00000040: a22f 2cbd 40a0 7437 7b91 b7bc d374 c53c
00000050: 5db5 30bb 38a9 85bc e0d9 e63c a836 44bc
00000060: b52d f3bc e7c3 0d3d d259 7f3b 6d7f acbc
00000070: 2896 c5bb d1f4 4eba 0106 843c af70 203c
00000080: 045a bf3b 7e8b 91bc a806 c63b 677c f83c
00000090: c632 473c c8f5 32bc 69a4 70bc 0b33 83bc
000000a0: 98a6 95bc 19ca 34bc b58e 49bc 9484 1cbc
000000b0: e049 813c 8c18 c0bc e979 1b3b d19c c8bc
000000c0: 3515 4dbc 2dfa 7c3d 85ae c73c eb85 b1bc
000000d0: 50f3 8b3c 407c a139 46ce ca3b bac7 913c
000000e0: e76c 243c ae9f 40bc fd20 8a3c 13ed ab3a
000000f0: 79ad 813c ea8b 90bc 8365 67bc 1262 3cbc
00000100: e494 febb 912c 493c 724b 053d 7180 bdbc
00000110: 8c93 b0bc b1df 973c 1927 9f3b 641a 663c
00000120: eca2 273d 7f55 ffbb fc88 fc3a bc7c dc3b
00000130: 5fda 663d 46d5 80bb bcd9 51bc 4516 283c
00000140: 5034 52ba 3ff2 aabb f8bc e53b f4fd ed3c
00000150: fec9 48bc 7b6e fcbc dbf0 383c f958 e6bc
00000160: 70a9 9c3c 06f5 1fbc a983 0c3d b83b a43b
00000170: 7627 68bc 63fa b7bc acc7 d5bc 9f12 093a
00000180: 41d8 93bb 65fd cc3c 3557 8e3c 8d18 efbc
00000190: 7c10 0d3d d271 b83c f7e0 493c 6fe8 8bbb
000001a0: 455f 86bc 8054 17bc b54c d03b fda5 debc
000001b0: 2843 9839 674c e13b 1d89 d63c 5c3d 32bd
000001c0: fc79 15bd 351d eb3c 15cf 2dbc e826 a63c
000001d0: 8939 6ebc 2825 72bc 2406 da3a c5b5 e8bc
000001e0: ac6f 0f3c 3685 e13c f3a7 8fbc 433f b2bc
000001f0: c90b ddba 7e91 16bd 7e86 66bc 63bd f93b
00000200: 23b6 b6bb 92f1 9dbb 4dba 273c b644 e03c
00000210: 3ea5 5bbc 4331 03bc db1b 893c 56e3 763b
00000220: 005e d43c abf1 afbc b40c bb3b 7be0 223c
00000230: 54b3 2fbc 87d3 703c 1ae9 f13b d4bd d9ba
00000240: bce9 4d3c 952a e13c f485 c73c f1d1 dd3b
00000250: 29f6 5cbc c7f4 0b3d ea4c c73c 2edc 9a3b
00000260: 56b7 a33c 518c 93bb 7786 d53c 8a78 ac3c
00000270: cdef dbbb 2eb7 b8bc c634 f7bb 68f0 97bc
00000280: f6de 3b3c f685 343c 0510 6c3d 9f98 e4bc
00000290: dcf8 79bc d8c8 b7bb b70a 34bd 5059 fd3b
000002a0: cd26 1abb 25d3 46bc 0120 50bb 7415 db3c
000002b0: 28bd 9a3c 504e 843c 36de ab3c 4235 81bc
000002c0: 439c 573c b78f 07bc de81 c53b 502c ac3c
000002d0: 75d6 4d3c f775 59bd c8f5 5d3c b0b1 6b3c
000002e0: db3b db3c 41fc 9b3c 1552 1e3d 0421 dc3b
000002f0: e913 8b3c 9a4c 90bc 833d 04bc a10d a53c
00000300: e818 e5bc 3447 133c 7d0e 1cbc 9a10 73bc
00000310: c31e e63a 5238 f63b 309a bc3b 7faa eebc
00000320: 8970 41bc a07d d6bc 7d31 cb3c 594d 98bb
00000330: 8b41 a539 0b95 f83c b560 f238 64f1 c4bc
00000340: b319 dbbb 0918 2d3d dbb1 c53c 2846 ab3c
00000350: 99bd 33ba 1a55 db3c 72b7 9e3c a4ab 97bc
00000360: 912a b53c 33f6 f73a 82b1 d2bc d4da 25bc
00000370: bdc0 9d3b 21f2 11bd 1a5e 97bb 4c07 113b
00000380: aea9 99bc b8f9 613c efb1 bc3b ff2a a93b
00000390: fdad 073c e2c9 a23c d2e8 c4bc 3010 b5bc
000003a0: f26f f83b aaaf 20bc 7f3a 933b 5e5d 63bb
000003b0: 96b9 abbc d579 52bc f156 b63c a725 91bb
000003c0: 6449 f637 8df2 193d 4e88 18bc 0cc3 3bbc
000003d0: eeea 8c3b 0aba 023d 018e 22bb 5c7e 8dbb
000003e0: 372a 783c fa26 1abc eb75 2dbc 3c0c f73b
000003f0: 953a 40bc e5ca b4bc 8848 72bc 0a42 db3b
-0.011359303 -0.020436635 -0.009097824 -0.022099888 0.0040289853 -0.0033515934 -0.021796891 0.0058683716
-0.009592852 -0.02807202 -0.010989333 -0.013870582 8.5002604e-05 0.026706906 0.00016264388 0.009281594
-0.042037614 1.4580844e-05 -0.022408238 0.024103558 -0.002696357 -0.016316041 0.028180063 -0.011975922
-0.02968488 0.034610655 0.003896345 -0.021056855 -0.006029863 -0.0007894757 0.016116144 0.009792491
0.005839588 -0.01776671 0.006043274 0.030332757 0.012158101 -0.010922857 -0.014687636 -0.01601555
-0.018267915 -0.011034512 -0.01230209 -0.009553093 0.015782297 -0.023449205 0.0023723787 -0.024488838
-0.012517263 0.061762024 0.02437521 -0.021670302 0.017083794 0.00030800886 0.0061891405 0.017795432
0.01003573 -0.011756821 0.016861433 0.0013116918 0.015829789 -0.017644841 -0.014123323 -0.011497991
-0.007769214 0.012278692 0.032542653 -0.023132535 -0.02155473 0.018539282 0.0048569557 0.014044378
0.04092686 -0.0077921744 0.0019266899 0.0067287367 0.0563606 -0.003931674 -0.01280826 0.010259216
-0.00080186594 -0.0052168663 0.007011052 0.029051758 -0.01225519 -0.0308144 0.011287893 -0.028118597
0.019123763 -0.009763008 0.03430525 0.005012002 -0.0141695645 -0.02245826 -0.026096188 0.000522891
-0.0045118635 0.025023172 0.017375568 -0.029186511 0.03443955 0.022515211 0.012321702 -0.0042696516
-0.01640285 -0.009236455 0.0063568004 -0.027178759 0.00029041735 0.006875563 0.026188428 -0.043515548
-0.036493286 0.02870045 -0.010608454 0.020282224 -0.014540085 -0.014779367 0.001663391 -0.028406987
0.008754652 0.02752934 -0.01753614 -0.021758681 -0.0016864474 -0.036759846 -0.014070151 0.0076214536
-0.0055759116 -0.004820057 0.010237289 0.027376514 -0.013406096 -0.00800735 0.016736915 0.0037672124
0.025923729 -0.021477541 0.0057083014 0.009941216 -0.0107239075 0.01469887 0.007382524 -0.0016612359
0.012567934 0.027486125 0.024355866 0.0067694117 -0.0134864235 0.034168985 0.024328668 0.0047259545
0.019984882 -0.004502811 0.026065094 0.021053571 -0.006711936 -0.022548284 -0.007544133 -0.018547252
0.011466732 0.011018267 0.057632465 -0.027904807 -0.015257087 -0.0056086592 -0.04395553 0.007731594
-0.0023521662 -0.012135302 -0.0031757357 0.026743628 0.018889025 0.016150624 0.020979982 -0.015772466
0.013159814 -0.00827401 0.0060274443 0.021017224 0.012563338 -0.053091016 0.013547368 0.014385626
0.02676194 0.019041182 0.0386525 0.006717803 0.016977267 -0.017614651 -0.008071306 0.0201481
-0.027965978 0.008989144 -0.009524939 -0.014835501 0.0017556775 0.007514038 0.0057556853 -0.029134033
-0.011806616 -0.02618295 0.024803871 -0.0046478924 0.00031520086 0.030344507 0.00011557472 -0.024040885
-0.006686413 0.04225925 0.02413266 0.020907477 -0.00068565604 0.026773978 0.019374583 -0.018514462
0.022115024 0.0018917978 -0.025719408 -0.0101229735 0.004814236 -0.035631303 -0.004619372 0.0022129593
-0.018757667 0.013792448 0.005758516 0.0051625962 0.008281228 0.019871656 -0.024036799 -0.022102445
0.0075817043 -0.009807507 0.0044930573 -0.0034693102 -0.020962518 -0.01284643 0.022258254 -0.0044295373
2.935966e-05 0.03758483 -0.009309841 -0.011460077 0.0043004667 0.031915702 -0.002480388 -0.0043180417
0.015146784 -0.009408707 -0.010587196 0.0075393002 -0.011732717 -0.022069404 -0.014787801 0.006691222

layer1.bias f4 [32]
00000000: 09ea cd3b 1945 92bc ab34 af3a c925 9ebc
00000010: 35e8 be3c 3466 b9bb 9e6c 543c 1438 61bc
00000020: 5b58 373c 7886 d3bc fad0 033b 4e20 6abc
00000030: 87c0 b83c 833b cbbc 283e cd3b 2801 f53b
00000040: d500 353c b2ee 41bc 13a2 ab3c fd7d 7bbc
00000050: 28fb a43c c187 bfbc 0936 67b9 fc55 ecbb
00000060: e866 d13a ac6d 6c3c d9e9 afbc f9f8 4d3c
00000070: ca12 a83b 975a b9bc b6ef c23b b53c 4bbc
0.0062840027 -0.017855214 0.0013367137 -0.019305127 0.023304084 -0.0056579355 0.0129653495 -0.01374628
0.011190499 -0.025820956 0.0020113573 -0.014289929 0.022552742 -0.02480865 0.006263513 0.0074769445
0.011047562 -0.011836695 0.020951306 -0.015349862 0.020139292 -0.023380162 -0.00022050006 -0.0072123986
0.0015976103 0.014430445 -0.021473812 0.012571567 0.005129193 -0.022626204 0.005948986 -0.01240461

layernorm1.weight f4 [32]
00000000: 1662 7f3f 1b59 803f cd76 7f3f 87bd 7f3f
00000010: f52e 843f 0fd1 7f3f c84d 833f 96a2 883f
00000020: 95ba 7f3f 24bb 7f3f 7204 7f3f aa30 803f
00000030: 6077 7a3f 6aa6 7f3f 23b7 7f3f c2c1 813f
00000040: 35a5 7f3f 447b 7f3f 7530 7f3f 24b9 7f3f
00000050: 7b10 803f 16b7 7f3f 63b6 7f3f 3223 823f
00000060: 9fd0 7a3f 7adf 7f3f 6f95 7f3f 27d9 7f3f
00000070: 24ef 803f d4d8 7f3f e3d2 7f3f d35f 7d3f
0.9975904 1.0027193 0.9979065 0.9989857 1.032683 0.99928373 1.0258112 1.0674617
0.99894077 0.9989493 0.9961616 1.0014851 0.978384 0.998633 0.9988882 1.0137255
0.9986146 0.99797463 0.99683315 0.9989188 1.000503 0.9988874 0.99887675 1.0166991
0.9797458 0.99950373 0.9983739 0.99940723 1.007298 0.9994023 0.9993116 0.9897434

layernorm1.bias f4 [32]
00000000: 1a5d 44bb d524 503c d31f c5ba 6638 76bb
00000010: 311e 703c f66a 5cba b061 f73c 594c ac3c
00000020: 7cd5 afba b15a 10bb aa0b 09bb 39f8 6d3b
00000030: 7d9f 273c 199a c4bb 8770 5dbb adc9 ac3c
00000040: 964b bbbb e8ef 943b d0e7 b13c 2027 903c
00000050: 952c 56bb 0442 48bb 08fd 89ba 1e51 e83b
00000060: 00da 8c3c e55a 93bb 2f39 72bb ebe6 e9ba
00000070: 3ec1 603c 54cb 37ba f23a acba 9323 f53b
-0.002996272 0.012704094 -0.0015039392 -0.0037570237 0.014655636 -0.00084082724 0.030197948 0.0210325
-0.0013415064 -0.0022026713 -0.0020911493 0.0036311282 0.010230896 -0.005999815 -0.0033788995 0.02109226
-0.0057157977 0.0045452006 0.021716982 0.017596781 -0.0032680382 -0.0030556927 -0.001052768 0.007089748
0.017193794 -0.0044969195 -0.0036960354 -0.0017845308 0.0137179475 -0.0007011194 -0.0013140126 0.0074810474

blocks.0.fcn_layer.weight f4 [32, 32]
00000000: e3de 323d 8770 133e d7b9 b33d efb8 2e3d
00000010: dd8a aabd f2ce ecbd a571 84bc 2ce9 2ebe
00000020: 2378 80bd a0b4 ff3d fa58 0e3e 2b35 3abd
00000030: 4eaf 0cbe aab4 e1bd 8f98 353e 894c 143e
00000040: 8e8e 073e 7c07 07bd 03b3 013e 6cce 1f3d
00000050: 8b7f 833c 6b07 03be 2007 153e 6ecb 3ebd
00000060: 9044 a6bc 431c 2c3e 4c6b acbd db8a 90bd
00000070: a243 053e 3252 0e3e 0bd7 3e3d 5f07 d7bd
00000080: ce4b c5bd 1f43 763d 896b 83bd 0806 c5bd
00000090: d9ce 203e c51e 40bd 6a3c a33d c4cd 3c3e
000000a0: 5cd3 2fbe a4a3 f03d d761 c53c 33de 9c3c
000000b0: 92e9 aabd 60b1 4c3d 64fb ed3d bf46 b83c
000000c0: 1dfc 13be 9b9e 96bd 5fa7 1cbe 33b9 203e
000000d0: e402 113d 27db 0abe 4bb3 c63d e9f1 1b3e
000000e0: a592 45bd 9f4c 02be df8d b6bc a904 bd3d
000000f0: a5b6 cdbd 97e2 5bbd 1747 093e 8f10 2ebd
00000100: 3983 0c3e 82f3 f53d 97dc 4dbd b0a2 c23c
00000110: d596 be3d 11dd 50bd 1c81 50bd 9016 13be
00000120: da8a e03d 587e df3d f710 063e 0e36 c3bd
00000130: e1f7 763d 6075 29be fcc4 8f3d 6175 093d
00000140: 7e08 a6bd 93d9 02bd 2488 b93b d82e 40be
00000150: 8747 1f3e b431 d6bd 0863 91bc 41f9 2a3e
00000160: 57bb dc3d d815 f0bd 634c 19be 12f3 a43d
00000170: 9982 3b3d f864 eebd 4085 76bd 42b3 503d
00000180: bed7 223b 6bec cabd 78fa c2bd 545b c9bd
00000190: e515 a33c d6e0 cbbd 8859 aa3d ca22 5e3c
000001a0: ab49 3fbd fde0 f1bd 535b c4bd 369d 29be
000001b0: 8e78 d43d ec2e e13d a222 efbd 56b0 0c3e
000001c0: 8b08 0abe eccd 52be 47c3 d13b c33d 793a
000001d0: 23fc 2f3e f280 04be ac02 823d 9b6d 8ebd
000001e0: d332 8eba 9336 22be 7b68 5cbd 73c4 febd
000001f0: 0082 0b3e 6312 14be e577 0abd a387 063e
00000200: e968 d33d bf78 523d a0ff 2d3e e206 763d
00000210: e00b fa3c 9253 fa3d 19ed 1a3e 6151 55be
00000220: a12f 153e 380f 15be 9ca4 173d 0a40 70bd
00000230: 11a0 f7bc 01e9 083e abd6 3cbd cca7 21be
00000240: 5fc6 d33d ba60 153e 5bc8 6bba 819e fb3d
00000250: 903d c73b 2835 943d 0d23 90bd dd30 203e
00000260: 74a5 b2b9 80f8 a8bd 49cb 9ebd d00f 2d3e
00000270: fc1f c0bd 0b05 1a3e 5a9d c3bd 53c3 f93d
00000280: 47e2 2dbd 0040 923d fbd4 4abd 6ea6 53bc
00000290: af18 5abd 36a9 29be 1674 19bd f35e b33b
000002a0: 5797 25bd 02ca 863d dce8 26be b4b2 e33d
000002b0: f9b2 2ebc 8b67 1d3e 29ba 35be cd61 9abd
000002c0: ab8c 103d 1e4a 66bd 4330 7c3d d59f bbbd
000002d0: 71f2 e93d 3cb2 a1bd 6f37 a4bd 2fa5 b5bd
000002e0: 1b1f 93bc e5f3 32bd e8a8 df3d ea38 333e
000002f0: 2dba da3d f332 933d 4000 073e 1f32 ab3d
00000300: e649 ac3d 198a b3bd 0488 273e 0d6b 65bd
00000310: 477b 7b3d 2c2b 2a3e ffaa a6bd 3e9f 57bc
00000320: 8342 883c ee27 0dbe 2883 0b3d a5c2 2a3e
00000330: a649 dfbd 88e0 2bbe fef2 12bd 0c6b 39bd
00000340: c31a b4bb b44f 86bd 43bc 273e 9eeb d33c
00000350: 4255 073e 7f40 1a3e 828c b73d 1642 d6bd
00000360: 0a77 63bc d2a2 5dbb 980d 00bd 8d0b 0fbd
00000370: fa40 bcbd e33f d83c 3fda 473d 2295 763d
00000380: ded8 783d f20a 073e 9294 753d c0a5 03bd
00000390: 1bdc bcbd 6a4e ac3d ee53 b6bb a693 023e
000003a0: a89b 063d f99c e43d 228f 25be acc8 cb3b
000003b0: 8307 d33d b884 2c3e f6c6 9f3a 5656 b63d
000003c0: 225c 32be 51d9 97bd 90f2 b93d 8e2d 6a3d
000003d0: ec16 a9bd e18b e63d 3799 75bd 0975 4abd
000003e0: 32e0 c5bc 7b2a 743d b941 223e 0da9 f83d
000003f0: 3961 a93c 77c2 06be ef7d 783d 2968 39be
0.043669593 0.14398395 0.087756805 0.042656835 -0.08327267 -0.11562909 -0.016167471 -0.17081136
-0.06272914 0.12485623 0.1390113 -0.04546086 -0.13738748 -0.11020787 0.17733978 0.14482321
0.13237974 -0.032966122 0.12665944 0.03901522 0.016052028 -0.12795798 0.14553499 -0.046580724
-0.020296365 0.16807656 -0.08418903 -0.070577346 0.13014081 0.13898543 0.0465918 -0.10499453
-0.09633599 0.060122605 -0.06416995 -0.09620291 0.15703906 -0.046904344 0.079705074 0.18437868
-0.17170471 0.11749962 0.024094505 0.019148922 -0.08345331 0.049973845 0.116202146 0.022494672
-0.14451642 -0.0735447 -0.15298222 0.15695648 0.035403147 -0.13560162 0.09702166 0.15229
-0.048235554 -0.12724541 -0.022284446 0.092294045 -0.10044602 -0.05368289 0.13406025 -0.04249626
0.13721932 0.12009336 -0.0502592 0.023759216 0.09306113 -0.050992075 -0.05090438 -0.14364076
0.10963984 0.1091277 0.13092409 -0.095317945 0.06029499 -0.16548681 0.07019994 0.033559207
-0.081070885 -0.031945776 0.005661981 -0.1876787 0.1555463 -0.10458699 -0.017747417 0.16696645
0.1077792 -0.11722916 -0.14970545 0.080541745 0.045778845 -0.11640352 -0.06018567 0.050952204
0.002484783 -0.099083744 -0.095204294 -0.098318726 0.019907901 -0.099549934 0.08317858 0.013558099
-0.046701115 -0.11810491 -0.09587731 -0.16563877 0.103745565 0.10995278 -0.116765276 0.13739142
-0.13479821 -0.20586365 0.0064014527 0.00095077994 0.17186026 -0.12939814 0.06348166 -0.06954499
-0.0010848887 -0.15841131 -0.053810578 -0.124398135 0.1362381 -0.14460139 -0.033805747 0.13137679
0.103227444 0.051384684 0.16992044 0.060065158 0.03052324 0.12222971 0.15129508 -0.20831825
0.1456895 -0.14556587 0.037022218 -0.058654822 -0.030227693 0.13370134 -0.04610316 -0.15786666
0.10340571 0.1458768 -0.0008994394 0.122860916 0.006080337 0.07236701 -0.070379354 0.1564364
-0.00034074078 -0.082505226 -0.07753617 0.16900563 -0.093811005 0.15040986 -0.09551497 0.12195458
-0.042452123 0.07141113 -0.04951952 -0.012918098 -0.053246196 -0.16568455 -0.037464224 0.0054739653
-0.040427532 0.06581499 -0.16299766 0.11118069 -0.010662788 0.1537153 -0.17746796 -0.07538185
0.0352904 -0.056223027 0.061569463 -0.09161345 0.11423195 -0.07895324 -0.080183856 -0.08869397
-0.017959168 -0.043689627 0.10920888 0.1750218 0.106800415 0.07187452 0.13183689 0.08359169
0.084125325 -0.087665744 0.1636048 -0.056010295 0.061396863 0.16618031 -0.08138084 -0.013160525
0.016633278 -0.13784763 0.034060627 0.16675813 -0.10902719 -0.1678487 -0.035876267 -0.045268103
-0.0054963543 -0.06558171 0.1638041 0.025869187 0.13216117 0.15063666 0.089623466 -0.10461824
-0.013883362 -0.0033818972 -0.031262964 -0.034923125 -0.09192081 0.026397651 0.04879212 0.060200818
0.060753696 0.13187769 0.05995614 -0.032140493 -0.09221669 0.08413394 -0.0055642044 0.12751636
0.03286329 0.11162753 -0.16167882 0.0062189903 0.10304167 0.16847503 0.0012190032 0.08903186
-0.17417958 -0.07414497 0.09079468 0.05717235 -0.08256325 0.112571485 -0.05996057 -0.04942802
-0.024154756 0.059610825 0.15845384 0.12141619 0.020676242 -0.1316012 0.060666975 -0.1810614

blocks.0.fcn_layer.bias f4 [32]
00000000: f1e4 943c 000a 093c 4c55 0fbe aab6 05be
00000010: 3948 a33d 66e9 523d edb4 83bd 1ac4 3b3c
00000020: 97f7 c3bd ff93 25bd 9709 da3c f45f 383e
00000030: c3e5 e63d 3eeb d0bb 3c63 ee3d 49fc 26be
00000040: 6d96 183d 6f34 87bd ef85 98bc 89d9 31bc
00000050: aa5e 5d3d 689e 8ebd 52d3 f6bd 729e 0e3d
00000060: 24ec 74bd 4930 363e 26ea ee3d 7fd9 a6bd
00000070: e5bc 4c3c 5706 0abe d679 e2bd a537 053b
0.018175574 0.008364201 -0.13997382 -0.13057962 0.0797276 0.051492117 -0.06430993 0.0114603285
-0.095687084 -0.040424343 0.0266159 0.18005353 0.11274292 -0.0063756993 0.11640021 -0.16307177
0.037252832 -0.06601798 -0.018618552 -0.010855087 0.054045357 -0.06963807 -0.12052025 0.034819074
-0.059795514 0.17791857 0.11665754 -0.08146953 0.012496208 -0.13478981 -0.110583946 0.0020327356

blocks.0.layer_norm.weight f4 [32]
00000000: 7d10 803f 136e 9f3f 5369 803f 32b6 9f3f
00000010: 62a0 823f 7ad5 7f3f e3a8 7f3f 537e 963f
00000020: 1700 a93f a107 a03f 9234 833f 31e7 893f
00000030: 5683 7f3f 8e18 7f3f 0fca a23f 3a51 7f3f
00000040: 3393 883f fb73 813f 62fe 7d3f 68e5 833f
00000050: 2baa a43f 8476 863f 62ea 723f 85cf 9f3f
00000060: 9017 843f b07b 7b3f b75e 963f 3baa 7f3f
00000070: 2e98 7e3f 5d4d 833f a306 803f 7d21 a13f
1.0005032 1.2455467 1.0032142 1.2477477 1.0205195 0.99935114 0.99867076 1.1757301
1.3203152 1.2502328 1.0250418 1.0773679 0.9980978 0.9964684 1.2717913 0.99733317
1.0669922 1.011352 0.9921628 1.0304384 1.2864431 1.0504918 0.9488889 1.2485205
1.0319691 0.9823561 1.1747655 0.99869126 0.9945096 1.0257984 1.0002025 1.2588345

blocks.0.layer_norm.bias f4 [32]
00000000: 2774 97bb dc85 783e ca36 ea3b 292a 713e
00000010: 88c6 103c 196a bbba 050b 813a 6da5 5d3e
00000020: 333e 893e a5be 713e b926 8e3c 1b16 a93c
00000030: f60d 71bb 2ae0 15bc 2021 7d3e 7748 f1bb
00000040: 43d0 143d 4383 4c3b 8eed 09bb fc3b c43c
00000050: 1d71 803e 2704 df3c 8923 0cbd 2a36 793e
00000060: 87d6 983c 05f7 b8bc 6332 683e d90d a1bb
00000070: 4635 b1bc 752f 593c ae86 033b fe2b 793e
-0.0046220007 0.24269813 0.0071476446 0.23551239 0.008836396 -0.0014298587 0.0009845203 0.21645136
0.26805267 0.23607881 0.017352449 0.020640424 -0.0036782003 -0.009147683 0.24719667 -0.007363375
0.036331426 0.0031206168 -0.0021046135 0.023954384 0.250863 0.02722366 -0.034213576 0.24337068
0.018656982 -0.022578726 0.22675471 -0.004914981 -0.021631848 0.013255944 0.002006929 0.24333188

last_layer.weight f4 [1, 32]
00000000: 4490 50bd 1b5a aabe 9c86 6c3d bc33 cbbe
00000010: 234c 9d3c fed5 1e3e 76ab 153e 9b94 a2be
00000020: a518 a3be 8420 bdbe f602 3d3e 999b 763e
00000030: 5111 df3d 4d56 b23d 3231 acbe 90fe 283e
00000040: 23d2 763e 1092 e53d a30b 2f39 681f 313e
00000050: 4aba b4be 847e 073e 07ca b8bd bd49 99be
00000060: b431 d63d b3a9 32bd fe8d 80be 9d55 103e
00000070: 4977 b33d cf03 353d 170b 833c 048e a7be
-0.050918832 -0.3327187 0.05774556 -0.39687908 0.019201344 0.15511319 0.14616188 -0.31754002
-0.3185474 -0.3693887 0.18458161 0.24082793 0.10891975 0.08707867 -0.33631283 0.16503358
0.24103598 0.112095 0.00016693636 0.17297137 -0.35298377 0.13231856 -0.09022909 -0.2993907
0.10458699 -0.04361887 -0.2510833 0.14095159 0.08762986 0.044193085 0.015996499 -0.32725537
